…
                "padding": 0
            },
            "type": "attention"
        }
    ]
}
2020-03-08T17:26:51 INFO: Loading tasks and data
2020-03-08T17:34:49 INFO: Torch version is: 1.0.1.post2
2020-03-08T17:34:49 INFO: Loading checkpoint
2020-03-08T17:34:51 WARNING: /home/ubuntu/pythia/pythia/utils/checkpoint.py:120: UserWarning: 'optimizer' key is not present in the checkpoint asked to be loaded. Skipping.
  "'optimizer' key is not present in the "

2020-03-08T17:34:51 INFO: Checkpoint loaded
2020-03-08T17:34:51 INFO: ===== Model =====
2020-03-08T17:34:51 INFO: Pythia(
  (word_embedding): Embedding(75505, 300)
  (text_embeddings): ModuleList(
    (0): TextEmbedding(
      (module): AttentionTextEmbedding(
        (recurrent_unit): LSTM(300, 1024, batch_first=True)
        (dropout): Dropout(p=0)
        (conv1): Conv1d(1024, 512, kernel_size=(1,), stride=(1,))
        (conv2): Conv1d(512, 2, kernel_size=(1,), stride=(1,))
        (relu): ReLU()
      )
    )
  )
  (image_feature_encoders): ModuleList(
    (0): ImageEncoder(
      (module): FinetuneFasterRcnnFpnFc7(
        (lc): Linear(in_features=2048, out_features=2048, bias=True)
      )
    )
    (1): ImageEncoder(
      (module): Identity()
    )
  )
  (image_feature_embeddings_list): ModuleList(
    (0): ModuleList(
      (0): ImageEmbedding(
        (image_attention_model): AttentionLayer(
          (module): TopDownAttention(
            (combination_layer): ModalCombineLayer(
              (module): NonLinearElementMultiply(
                (fa_image): ReLUWithWeightNormFC(
                  (layers): Sequential(
                    (0): Linear(in_features=2048, out_features=5000, bias=True)
                    (1): ReLU()
                  )
                )
                (fa_txt): ReLUWithWeightNormFC(
                  (layers): Sequential(
                    (0): Linear(in_features=2048, out_features=5000, bias=True)
                    (1): ReLU()
                  )
                )
                (fa_context): ReLUWithWeightNormFC(
                  (layers): Sequential(
                    (0): Linear(in_features=2048, out_features=5000, bias=True)
                    (1): ReLU()
                  )
                )
                (dropout): Dropout(p=0)
              )
            )
            (transform): TransformLayer(
              (module): LinearTransform(
                (lc): Linear(in_features=5000, out_features=1, bias=True)
              )
            )
          )
        )
      )
    )
    (1): ModuleList(
      (0): ImageEmbedding(
        (image_attention_model): AttentionLayer(
          (module): TopDownAttention(
            (combination_layer): ModalCombineLayer(
              (module): NonLinearElementMultiply(
                (fa_image): ReLUWithWeightNormFC(
                  (layers): Sequential(
                    (0): Linear(in_features=2048, out_features=5000, bias=True)
                    (1): ReLU()
                  )
                )
                (fa_txt): ReLUWithWeightNormFC(
                  (layers): Sequential(
                    (0): Linear(in_features=2048, out_features=5000, bias=True)
                    (1): ReLU()
                  )
                )
                (fa_context): ReLUWithWeightNormFC(
                  (layers): Sequential(
                    (0): Linear(in_features=2048, out_features=5000, bias=True)
                    (1): ReLU()
                  )
                )
                (dropout): Dropout(p=0)
              )
            )
            (transform): TransformLayer(
              (module): LinearTransform(
                (lc): Linear(in_features=5000, out_features=1, bias=True)
              )
            )
          )
        )
      )
    )
  )
  (image_text_multi_modal_combine_layer): ModalCombineLayer(
    (module): NonLinearElementMultiply(
      (fa_image): ReLUWithWeightNormFC(
        (layers): Sequential(
          (0): Linear(in_features=4096, out_features=5000, bias=True)
          (1): ReLU()
        )
      )
      (fa_txt): ReLUWithWeightNormFC(
        (layers): Sequential(
          (0): Linear(in_features=2048, out_features=5000, bias=True)
          (1): ReLU()
        )
      )
      (fa_context): ReLUWithWeightNormFC(
        (layers): Sequential(
          (0): Linear(in_features=2048, out_features=5000, bias=True)
          (1): ReLU()
        )
      )
      (dropout): Dropout(p=0)
    )
  )
  (classifier): ClassifierLayer(
    (module): LogitClassifier(
      (f_o_text): ReLUWithWeightNormFC(
        (layers): Sequential(
          (0): Linear(in_features=5000, out_features=300, bias=True)
          (1): ReLU()
        )
      )
      (f_o_image): ReLUWithWeightNormFC(
        (layers): Sequential(
          (0): Linear(in_features=5000, out_features=5000, bias=True)
          (1): ReLU()
        )
      )
      (linear_text): Linear(in_features=300, out_features=3129, bias=True)
      (linear_image): Linear(in_features=5000, out_features=3129, bias=True)
    )
  )
  (losses): Losses()
)
2020-03-08T17:34:51 INFO: Starting test inference for evalai
2020-03-08T17:34:51 INFO: Predicting for vqa2
